pretrained.pt (torch, 57224 bytes, 14 tensors)

tdnn.0.weight f4 [32, 23, 3]
000000 8a df 49 3d bb 9e a4 3d 32 ed e3 bc 72 7b e6 3d
       0.04928545 0.08038088 -0.027823064 0.11254014
000010 e4 ed 86 3c fc 51 90 3d 38 4f bf 3b f6 54 1e 3e
       0.016470857 0.07046887 0.005838301 0.15462098
000020 ac 32 46 3e 8c 6f 00 bd 43 13 2b 3e 84 74 cd 3d
       0.19355267 -0.03135638 0.16706567 0.10031989
000030 88 f6 dd 3d 6f 4e 64 3d 8f 15 ef 3d f4 c5 18 3b
       0.10838038 0.055738863 0.11674034 0.0023311349
000040 a2 d6 cf 3d 11 41 53 3d f6 5b 91 bd e7 5d 0d 3c
       0.1014836 0.051575724 -0.07097618 0.008628345
000050 92 19 79 bd 60 1f 41 bd 13 52 86 bd 76 72 65 3d
       -0.0608154 -0.047149062 -0.06558623 0.05601736
000060 e0 86 f0 bd 94 4a 8b bd ac f5 26 bd 27 ff 9d bd
       -0.11744475 -0.06801334 -0.040761635 -0.07714682
000070 ab d5 53 3b 10 a9 be bd e0 0f 89 3d fc f4 ec bd
       0.00323234 -0.0930959 0.06692481 -0.115701646
000080 0a b8 a8 3d f1 52 7d 3a 56 fb 24 bd 30 f9 81 3d
       0.08238228 0.00096635433 -0.040278755 0.06346357
000090 33 73 79 bc f7 73 5e 3d 46 57 87 bc ae e6 ac bd
       -0.01522522 0.05430981 -0.016521107 -0.08442436
0000a0 42 b5 1c bc 9c a8 72 bd c8 12 0c 3c b0 5f 8f 3d
       -0.0095647 -0.05924283 0.0085494 0.07000673
0000b0 21 1c 41 3d b0 90 b9 bd 7e 27 cb 3c 26 61 58 bb
       0.047145966 -0.090608 0.024799105 -0.003301689
0000c0 2a 03 e2 3c 5f c4 ba bd a6 62 03 be a6 e6 a7 bd
       0.0275894 -0.09119486 -0.128306 -0.081982896
0000d0 56 04 ec bd 9a db 87 3d d4 00 d0 bc f0 9e a4 bc
       -0.115242645 0.066336825 -0.02539102 -0.020095319
0000e0 6b 6f 32 bc 29 8b 02 bd e6 fc 8d 3d da d6 9c bd
       -0.010890822 -0.031870995 0.06933002 -0.07658167
0000f0 1a 5e 68 bb 26 f7 a6 bd 32 b4 55 3d f2 38 79 bd
       -0.003545648 -0.081526086 0.0521738 -0.060845323
000100 67 52 9c 3c e0 19 1a bd 13 40 e0 3d 2f a1 55 bd
       0.019082261 -0.037622333 0.10949721 -0.05215567
000110 e6 bc 51 bd 66 5d 93 bd 98 9c da 3d 4c d5 22 3d
       -0.05120554 -0.07195549 0.10674399 0.039754197
000120 16 8d ec 3d e4 72 ce bd 2a c1 f5 bd 88 2b c1 bd
       0.115503475 -0.100805074 -0.11999734 -0.09432131
000130 5c a6 a7 bd e2 10 40 3d 98 57 30 3d 37 77 c9 3d
       -0.081860274 0.0468911 0.043052286 0.098371916
000140 43 1a 84 bd 82 35 ab bd c8 20 74 3d 1e 55 5f bd
       -0.064503215 -0.08359815 0.059601575 -0.054524533
000150 14 04 90 3d 84 50 fe bc ce 71 81 3d 7a 3a c0 bd
       0.07032028 -0.031044252 0.06320535 -0.093861535
000160 7c 2f 7d bd c0 e6 02 3d fc de ca 3c 19 f2 00 bd
       -0.061812863 0.03195834 0.02476453 -0.031480882
000170 f6 f1 8c 3d 28 aa a0 3d 4d ee b5 bd 77 da 87 bd
       0.06882088 0.07844955 -0.08883343 -0.06633466
000180 90 e9 dd 3d 08 ab 28 bd 5f b2 2f bd ad 7f f1 bd
       0.10835564 -0.041178733 -0.042894717 -0.1179193
000190 f9 3a 8e bd bc ac f0 3c 18 00 7b bc 6f 0c af bd
       -0.06944842 0.029379241 -0.015319847 -0.085472934
0001a0 ea 75 a8 3b 60 bc a9 bd c6 48 cf bd 8b eb 87 bd
       0.0051410096 -0.08287883 -0.10121302 -0.06636723
0001b0 cc 31 db bd 6b bb 9b bd 96 e8 f6 3d 10 cf bb 3c
       -0.107028574 -0.076041065 0.12056081 0.022925884
0001c0 ee a0 19 3d 1e 4b e4 bd 2a 57 a3 bd 9d 29 28 bd
       0.03750699 -0.1114714 -0.079756096 -0.04105531
0001d0 6f a2 88 3c 30 a5 db bd 18 85 56 bd 8c b1 96 bd
       0.016679017 -0.107248664 -0.05237302 -0.07358083
0001e0 4e 46 1f bb ca d1 3a bd 7c dd 23 bc 68 62 b1 bd
       -0.002430338 -0.045610227 -0.010001536 -0.08661348
0001f0 3a bc b0 bd df bc 9a bd da 24 2a bd c4 3e c0 bd
       -0.08629651 -0.075555556 -0.04153905 -0.093869716
000200 9f b4 cd 3d 81 3d bc bc 37 82 d8 3d ea ae 21 3d
       0.10044216 -0.022978546 0.105717115 0.03947345
000210 98 bb d0 bd c9 5b aa 3d 94 26 09 bd bd b9 2c bd
       -0.10192031 0.08318288 -0.033484057 -0.04216932
000220 2d bf c5 bd aa 81 ee bd 25 72 1c bc 2e 74 a6 bd
       -0.096556045 -0.11645825 -0.009548699 -0.08127628
000230 08 ce 3f bc 99 7f 6a bd e6 f1 ea 3d 94 77 6d bd
       -0.0117068365 -0.057250593 0.1147192 -0.057975367
000240 3a ff 1a 3d d6 30 b4 3d 30 8a e2 3d 7c 71 25 3e
       0.03784106 0.08798377 0.110615134 0.16156572
000250 b2 5c 35 3e 60 82 19 bd 3d e2 9d 3d 4e 96 5f 3b
       0.17711142 -0.03747785 0.07709167 0.0034116688
000260 d2 48 c0 3c 6e ae 4c bd 2f f9 ff 3d ee a8 69 bd
       0.023472223 -0.049971037 0.124987 -0.05704587
000270 72 21 b9 3d 70 26 4b 3d d0 9f 64 3d 9f bf b3 bc
       0.09039582 0.049597204 0.05581647 -0.021941958
000280 96 8a f3 3d 6c 48 47 3d 43 38 56 3d aa 4f 80 bd
       0.118916675 0.04865305 0.05229975 -0.06265195
000290 d4 d4 96 3d 35 55 31 3c 73 b6 01 bd 1a f9 dc 3d
       0.073648125 0.010823538 -0.031668138 0.107897
0002a0 4b ec f9 3c 81 2a a4 bd 20 fc 84 bd 2f 98 8e bc
       0.030508181 -0.080159195 -0.064934015 -0.017406551
0002b0 ac d7 ee 3c d0 3d 53 bd 20 cf 2d bd a3 7d 8d bd
       0.029155575 -0.05157262 -0.042433858 -0.06908729
0002c0 0a 12 8e bd 46 ec 97 3d ee 02 af 3d 8c 99 b7 bd
       -0.069370344 0.074181125 0.08545481 -0.089648336
0002d0 f4 52 41 3d 8e 08 76 3d ec 61 95 3c cb aa ae bc
       0.04719825 0.060066752 0.01823517 -0.021321675
0002e0 08 7c 26 3d 8a ed 75 3d 5f 1a 50 3d eb 2c 3b bd
       0.04064563 0.060040988 0.0508064 -0.045697134
0002f0 92 0c 0e bd 8a 1b 44 3c a4 78 46 bd 58 88 33 bd
       -0.034679957 0.011969456 -0.048454896 -0.0438312
000300 e4 0a bf 3d a9 0e 6f 3d 98 a8 cc bb 36 ab 1c bd
       0.09328249 0.05836359 -0.006245684 -0.038249217
000310 99 5a 46 bd 60 e4 32 bd 35 c5 dc 3a 8a 7a b7 bc
       -0.048426244 -0.043674827 0.001684344 -0.022397298
000320 d0 cf 1d be 24 2f a9 bd ed 68 42 3d 0d e0 0c bc
       -0.15411305 -0.082609445 0.047463346 -0.00859834
000330 12 c0 4c bd 5c ca f0 bd 66 e3 09 be 56 7c e3 bd
       -0.04998786 -0.11757347 -0.13465652 -0.111076996
000340 55 1e 35 bd b9 84 25 3d dc 6a 8b 3d 28 ed 2c 3d
       -0.04421838 0.040409777 0.06807491 0.042218357
000350 f4 7e db bd 92 64 b8 bd 60 3d 21 bd a4 63 dd 3d
       -0.10717574 -0.09003557 -0.039365172 0.108100206
000360 68 9f 9d b9 ae 2b 4a bd f6 e7 20 3d ee 9d 87 bd
       -0.0003006414 -0.049358062 0.039283715 -0.066219196
000370 94 be c8 bd 09 66 97 3d e2 40 96 bd 34 6b 26 bd
       -0.09801975 0.073925085 -0.07336594 -0.04062958
000380 2c 23 05 be 5e 0a 8e 3d 13 de a7 3d be ed 22 3d
       -0.13001698 0.06935571 0.08196654 0.03977751
000390 61 44 af bd 31 90 f8 bd 02 12 cb bd c4 f7 b6 3d
       -0.08557964 -0.12136877 -0.09915544 0.08933976
0003a0 42 ab 5a 3d da a5 c6 3d 37 2d 71 3d 08 3c 01 3d
       0.05338598 0.096996024 0.05888101 0.03155139
0003b0 95 4c 19 bb b6 b6 b9 bd c0 36 c5 bd d6 57 df bd
       -0.0023391594 -0.090680525 -0.09629583 -0.10905425
0003c0 1a d8 5a 3d 35 83 50 bd 3e cc 97 bc 56 cc 85 bd
       0.053428747 -0.05090638 -0.018530007 -0.065331146
0003d0 d7 ab 83 bc 54 4c a0 bd cb f5 a7 bd fa 32 17 3d
       -0.01607315 -0.078270584 -0.08201178 0.03691385
0003e0 7e e4 14 bd 4b 06 91 3d be 07 26 bd 94 97 b4 bd
       -0.03635072 0.070812784 -0.040534727 -0.08817974
0003f0 78 c4 a0 bc 83 43 61 bd a5 08 0e bd 85 0c ea bd
       -0.019624934 -0.054996025 -0.034676213 -0.11428169

tdnn.0.bias f4 [32]
000000 20 37 5d 3d 44 55 b5 bc 8a 56 ea 3c 4c 9c ec 3c
       0.05400765 -0.022135384 0.028605718 0.028883122
000010 16 30 75 bc ac 01 c7 3d 80 be c0 bd e9 b3 64 3d
       -0.014965078 0.09717116 -0.09411335 0.05583564
000020 f4 1a a1 bd 54 1e d8 bd b9 70 d8 bc 7c 8b 7a 3d
       -0.07866469 -0.1055266 -0.026420938 0.06116818
000030 82 6a ac 3d 08 ce f6 3c d6 7c 2a bc 7e d4 07 bc
       0.08418752 0.03012754 -0.01040574 -0.008290408
000040 82 40 2c bd a7 13 29 bc 0b b3 f0 ba c0 3e c8 3d
       -0.042053707 -0.010319627 -0.0018363906 0.097775936
000050 d8 51 90 3d 84 0b ae bd 9c ed 83 ba 84 af 96 bd
       0.070468605 -0.0849829 -0.001006532 -0.07357696
000060 36 6a f2 ba a6 8c b0 bd e4 8e f6 3c af f5 95 bd
       -0.0018494788 -0.086205766 0.030097432 -0.07322251
000070 f7 c0 f2 3d 77 d2 ba 3d 84 c5 ab bd 4d b7 cf bd
       0.118532114 0.09122174 -0.083872825 -0.10142384

tdnn.2.running_mean f4 [32]
000000 15 d8 07 3f 36 69 5a 41 04 e7 4e 3f 50 c0 c9 40
       0.5306409 13.650686 0.8082125 6.3047256
000010 17 5c 36 41 8f 47 03 41 b6 60 ab 40 33 82 ba 25
       11.397483 8.20497 5.3555555 3.2354083e-16
000020 fc 3e bb 40 a6 8c cc 40 2b c6 3b 23 e0 0f 39 40
       5.8514385 6.392169 1.0179254e-17 2.891594
000030 04 51 cf 21 d6 2e d8 40 9f c8 11 41 ca e5 44 23
       1.404831e-18 6.7557173 9.11148 1.0673841e-17
000040 32 d7 80 3e 26 fb e8 3b ce 52 4e 3e 0d ea c0 3b
       0.2516418 0.0071100174 0.20148775 0.005887276
000050 fc 72 16 41 1e 34 9d 3e 95 94 1a 21 a5 b7 d5 40
       9.403072 0.30703825 5.2373876e-19 6.6786675
000060 64 20 cf 3e e6 ca 87 3e 30 c6 4c 40 c0 f4 57 3f
       0.404544 0.26521987 3.1995964 0.84357834
000070 a7 57 85 40 fa 06 35 40 af a4 af 20 59 c2 40 3e
       4.1669497 2.8285508 2.9755132e-19 0.18824138

tdnn.2.running_var f4 [32]
000000 ed bc ac 3f 90 fb 90 42 39 2d c9 3f 76 b0 9f 41
       1.3495156 72.49133 1.5716926 19.961163
000010 a8 51 6c 42 52 23 04 42 5e 7d 7b 41 88 39 a0 28
       59.079742 33.034492 15.718107 1.7788519e-14
000020 0e f7 c6 41 32 e8 b8 41 80 98 9e 28 b0 46 cb 40
       24.870632 23.113377 1.760766e-14 6.352379
000030 e6 90 9e 28 24 4f 9e 41 68 f5 0c 42 97 97 9e 28
       1.7604363e-14 19.788643 35.239655 1.7607265e-14
000040 4c 09 07 3f bc de 0a 3d 76 41 dc 3e 06 2c bc 3c
       0.5274856 0.033903822 0.43018693 0.02297021
000050 7c 42 32 42 9e 69 ec 3e aa 8f 9e 28 79 1c aa 41
       44.564926 0.4617433 1.7603828e-14 21.263903
000060 bc fb 31 3f af 55 ed 3e 60 68 05 41 a6 e9 e9 3f
       0.6952474 0.46354434 8.337982 1.8274429
000070 7c 96 08 41 38 2c ab 40 94 8f 9e 28 38 b8 a1 3e
       8.536739 5.349148 1.7603791e-14 0.3158586

tdnn.3.weight f4 [32, 32, 5]
000000 74 9d 56 bc 9a b7 29 bd c7 5e 23 bc a2 72 9c bd
       -0.013099063 -0.04143486 -0.009971327 -0.07639052
000010 b2 4c 9e 3b 98 a2 75 bd 38 7c 07 bd 1e af f8 bc
       0.00483092 -0.059969515 -0.03307745 -0.03035694
000020 cc ff 1d 3d d9 ed b6 3b e1 98 f3 bd 44 cc a8 bd
       0.038574025 0.005582553 -0.11894394 -0.082420856
000030 49 18 8c bd 7c c2 cf bd 0e e7 eb bc 38 94 2d 3d
       -0.068405695 -0.10144517 -0.028796699 0.04237768
000040 3b 28 a8 3b 3e f4 82 bc 91 91 3f 3c 4a e2 4c bd
       0.005131749 -0.015985604 0.011692421 -0.050020494
000050 e8 bb 23 bd c0 2a 05 3c 2d 4a 9f 3d ff 79 bb bc
       -0.039974123 0.008127868 0.0777782 -0.02288532
000060 28 61 46 3d 7a 87 c9 bc 5c 91 6b bc cd 71 7a bd
       0.0484325 -0.024600733 -0.014377918 -0.061143685
000070 96 9b 7f 3d b5 42 ad 3d b0 67 c4 3b b3 e0 7e 3d
       0.062404238 0.08459989 0.005993806 0.06222601
000080 f2 2f 6a 3d 40 dd 33 3d 5e 61 08 3d 07 a2 9b bd
       0.05717463 0.043912172 0.03329598 -0.07599264
000090 a6 a4 99 bd 94 90 7b bd 71 2a bf 3c 8c bd 8d bd
       -0.07502107 -0.061417177 0.023335667 -0.06920919
0000a0 e0 e3 67 bd d7 44 98 bc 5e dc 81 bd f3 53 8b 3c
       -0.056613803 -0.018587513 -0.0634086 0.017007804
0000b0 72 de c9 3c 3e 66 20 bd 4b fc 82 3d be 04 bf bc
       0.024642203 -0.039160006 0.06395777 -0.023317691
0000c0 aa 59 79 bc 87 f0 84 3d 6f 14 89 3d e0 f2 1a bc
       -0.0152191315 0.064911895 0.066933505 -0.00945732
0000d0 d8 5a 69 bd bf ce 22 bd ed f0 23 3c d2 e1 29 3d
       -0.0569714 -0.03974795 0.010006172 0.041475125
0000e0 3e 02 56 3d 1e 48 0c bd 9c c9 6d bd 30 1f 8d bd
       0.052248232 -0.034248464 -0.058053598 -0.06890714
0000f0 ab 29 ce bc c4 29 80 3a d8 5f 10 bd ea 0c 80 bd
       -0.025166353 0.0009778072 -0.035247654 -0.06252463
000100 1a 47 08 3c e7 3e 52 bd 72 0e 6d bd 12 8a 79 bd
       0.008317733 -0.05132952 -0.057875104 -0.06092269
000110 e3 9c 0a bd ab e6 94 3d 85 98 19 3d 1d 50 cf 3a
       -0.033841025 0.07270559 0.03749897 0.0015816722
000120 32 76 c8 3c c4 50 04 3d a8 d8 2f 3b 0f b4 82 bd
       0.024470422 0.032303587 0.0026832018 -0.06382
000130 39 ba 47 bd bd 36 5c bd f7 c5 f5 ba e8 55 94 bd
       -0.04876158 -0.05376314 -0.0018751015 -0.07242948
000140 a6 07 d7 bc 58 46 23 bd de f5 2d 3d 4a c1 0e 3d
       -0.026248764 -0.039862007 0.042470805 0.034852304
000150 7c d1 4e bc 00 da f5 3b b8 e4 ac bc 20 ba c7 3c
       -0.012623187 0.0075027943 -0.021105155 0.024380744
000160 3a e2 64 bd c4 b7 f2 bc d2 ac c8 bc fb 9c b7 bc
       -0.05587981 -0.029628642 -0.02449647 -0.022413721
000170 10 97 af bd c0 e2 91 3c f6 b4 15 3d fe eb 1c bd
       -0.08573735 0.017808318 0.03654953 -0.038310997
000180 4a a9 9c 3c ad d6 63 bb ba 35 2e bc 15 58 51 3c
       0.019123692 -0.0034765408 -0.010632927 0.012777348
000190 64 ef 8b 3d 6c cc 13 3c 24 76 37 bd 79 6c 28 bd
       0.068327695 0.009020906 -0.044790402 -0.041119073
0001a0 28 c4 23 3d 54 db e3 3b 5a c8 69 bb 14 79 86 bc
       0.03998199 0.006953636 -0.0035672397 -0.016415156
0001b0 6a fa 2c bd 9d 2f 57 bd fc d8 2a bd ae f8 52 3c
       -0.042231 -0.052535642 -0.04171084 0.012876673
0001c0 10 94 b4 3c c2 76 77 3d f4 14 92 bc 43 86 5a 3c
       0.022043258 0.06041599 -0.017832257 0.013337675
0001d0 ee e4 61 3d 56 4d 0c 3d 8a ab 6c 3a b4 1d d0 3c
       0.055149965 0.03425344 0.0009028247 0.025404789
0001e0 39 5d 0a bd 2b 23 ab bd 54 3d 8d bc ae ac 0e bd
       -0.03378031 -0.08356317 -0.017241158 -0.03483265
0001f0 70 df 2b 3d 6c 42 c8 3c 61 cf 88 bc c6 c6 40 3d
       0.041961133 0.024445735 -0.016700448 0.047064565
000200 ad 14 6d bd e0 ab 48 3d a4 41 5c 3d fc b3 e9 bb
       -0.057881046 0.048992038 0.053773537 -0.0071320515
000210 e2 99 84 bd fc 89 e8 bc d0 0d eb bc 7e b7 1a bc
       -0.06474663 -0.028386109 -0.02869311 -0.009443162
000220 12 fe ae bd 98 be 0c bd 26 4f 67 bd 2f b4 1c bd
       -0.08544554 -0.034361452 -0.056471966 -0.038257774
000230 36 c1 f9 bc 7c f9 37 bc 1c 46 53 bd a8 2c 42 bd
       -0.030487638 -0.011228915 -0.051580533 -0.04740587
000240 ba a4 ed 3b 07 71 63 3d 70 7f 9c 3d fa 53 23 bd
       0.007252303 0.055527713 0.07641494 -0.03987501
000250 f6 14 3f 3d 85 68 ca bc 56 5f 7a bd f4 52 64 bb
       0.04665085 -0.024708042 -0.061126076 -0.0034839483
000260 7c c4 39 bd da 72 8b bd a0 50 97 bd f0 c1 c2 bd
       -0.045353398 -0.068090156 -0.07388425 -0.09509647
000270 53 dc 56 3c 36 f6 29 3c 16 ff 56 bd fa 94 8c bd
       0.013114053 0.010373643 -0.052489363 -0.068643525
000280 67 c7 6f bd 57 5b 30 bd 22 69 a7 bc 7e 30 3f 3d
       -0.058539774 -0.04305586 -0.020435873 0.046677105
000290 6a 9e 9e 3c c6 56 13 bd ba 61 50 3d d1 04 55 bd
       0.019362647 -0.035971425 0.05087445 -0.052006546
0002a0 eb cb 87 bd 35 53 50 3c bf d1 19 bc c5 06 45 3d
       -0.06630691 0.012715151 -0.009388386 0.04810216
0002b0 12 19 ae 3d 02 2c 9c bc 9e 08 05 bd 00 22 ca 3c
       0.085008755 -0.019063953 -0.03247892 0.024674416
0002c0 e9 27 95 bd 2a 3f 8a 3d 6c da 34 bd 00 e0 f3 3c
       -0.07283003 0.06750329 -0.044153616 0.029769897
0002d0 5e 35 8b bd fc 04 67 bd 9b ed aa 3b a0 6c b8 3c
       -0.06797288 -0.056401238 0.005216313 0.022512734
0002e0 19 c5 5b 3d 7c d4 72 3d ee eb a7 bb c2 72 3b bc
       0.053654764 0.059284672 -0.0051245606 -0.011440935
0002f0 75 7a 2b 3c 55 73 dd bc 7e 08 ff 3a 3f 8d 9c bd
       0.010466208 -0.027032534 0.0019457487 -0.07644128
000300 d4 05 87 bd 26 e1 3d 3d 76 ef 42 bd 9a 30 7f 3d
       -0.065929085 0.046357296 -0.04759165 0.06230221
000310 4b 2d fa 3b 9c e2 97 3c b8 b0 91 3d 82 61 30 bd
       0.007634794 0.018540673 0.071137846 -0.04306174
000320 7c ed 79 bc 26 54 30 3c 20 e1 b6 3c fc 19 af bd
       -0.015254375 0.01076225 0.022324145 -0.08549878
000330 22 7b ae 3c 3a ab 51 bd e0 e6 f9 3b f2 9e 4c 3d
       0.021298949 -0.051188685 0.0076263994 0.04995627
000340 e5 db 74 bc 50 69 1c bc 2b d9 d6 bb 8e 93 84 3d
       -0.014945005 -0.009546593 -0.00655665 0.06473456
000350 4e 4b 32 3d ab a0 4e 3c 4d 29 44 bd 8e 3c 2a bd
       0.043528847 0.012611548 -0.04789095 -0.041561656
000360 80 88 6d 3d a2 56 48 3d e0 8f f4 3c 7d fe 96 bd
       0.057991505 0.048910744 0.029853761 -0.073727585
000370 9f 32 7c 3d b3 20 f6 bb 25 cb 6d 3d 81 0d 8c 3d
       0.061571714 -0.0075112223 0.05805506 0.06838513
000380 b7 01 0e 3c 0e ce 2b bd de 73 8f 3d c3 b2 31 bd
       0.008667401 -0.041944556 0.07004522 -0.04338337
000390 80 b8 4e 3d b4 14 9f bd 82 7c 10 bd 7d b0 97 bd
       0.05046892 -0.07767621 -0.03527499 -0.07406709
0003a0 6b 42 1a bd 42 a0 fe 3c d6 ba 76 bd 4f 0d 8c bd
       -0.037660997 0.031082276 -0.060236774 -0.06838476
0003b0 69 85 63 3d 76 53 29 3d 69 46 b4 ba ed 7a 65 bd
       0.05554715 0.04133936 -0.0013753894 -0.056025434
0003c0 61 3d 9c bc 47 04 c3 bc 33 e3 3e 3d 23 bd 75 bc
       -0.019072236 -0.02380575 0.046603393 -0.014998707
0003d0 54 64 97 bc c2 9d 62 bd 3a 71 13 bd d4 6c 00 3d
       -0.018480457 -0.05532623 -0.035996653 0.031353787
0003e0 06 e5 88 3c 78 32 49 3c 26 bd c5 bc 36 3b 92 3d
       0.01671077 0.012280099 -0.024138045 0.071402
0003f0 ea f9 93 3c 71 67 08 bd d3 41 e7 bc 3a db dc bb
       0.018063504 -0.033301774 -0.02822963 -0.006740001

tdnn.3.bias f4 [32]
000000 be 41 f8 bc 69 db b1 bc 5e dd 33 bd 26 ab 21 3d
       -0.030304786 -0.021711068 -0.043912284 0.03946986
000010 5c 79 54 3d 96 8e c9 3d 26 c3 1b bd be cc 18 bc
       0.05187355 0.09841649 -0.038027905 -0.009326158
000020 e8 4f 7d 3c 6b 1f a0 bc d1 70 3a 3c 8e 2e 4c 3d
       0.015460946 -0.019546231 0.011379437 0.049849086
000030 2c 1f a0 3d 30 84 e9 bc ee 8b b1 bd 6c e8 b5 3b
       0.078184456 -0.028505415 -0.086692676 0.0055513885
000040 da 27 de 3c a8 20 5d 3c f0 3d 80 3d 52 e5 75 3d
       0.027118612 0.013496555 0.06261814 0.06003315
000050 6b c5 16 3d ac ad 85 bc 2a 43 bb bc 58 73 f8 bc
       0.036809366 -0.016318165 -0.022859175 -0.030328438
000060 bd 89 26 bd 5a 0c b1 bb a0 97 d7 bd 28 cc 16 bd
       -0.0406587 -0.0054030837 -0.10526967 -0.036815792
000070 ef 95 7c bd 18 e0 81 3c 9e bc 53 3c 14 7d 66 bd
       -0.061666425 0.015853927 0.012923388 -0.056271628

tdnn.5.running_mean f4 [32]
000000 a5 00 d9 3e 78 d3 bd 3e 55 16 b3 3e 24 93 af 3e
       0.42383304 0.370754 0.34977975 0.34291947
000010 ef c1 c1 3e 89 4d bf 3e 08 84 53 3e e4 ff dd 3e
       0.37843272 0.37363842 0.20655835 0.43359292
000020 59 e7 d2 3e 38 64 cc 3e b0 c0 97 3e 56 f6 c5 3e
       0.4119213 0.3992021 0.29639196 0.38664502
000030 54 44 e5 3e 58 1b f6 3e 50 1f 3b 3e b3 62 26 3e
       0.44778693 0.48067737 0.18273664 0.16248588
000040 a4 75 09 3e 96 80 b1 3e 48 48 a2 3e 84 b7 b8 3e
       0.13423783 0.34668416 0.3169577 0.3607751
000050 7c 46 ac 3e a6 20 c4 3e f1 58 ed 3e 62 5d 01 3f
       0.33647525 0.3830616 0.4635692 0.50533116
000060 98 77 c9 3e 89 6a ba 3e 58 6d c4 3e cb 14 bb 3e
       0.39349055 0.36409405 0.38364673 0.365393
000070 55 d7 70 3e 46 f0 5d 3e 75 15 bb 3e c2 4e d6 3e
       0.23519643 0.21673688 0.36539808 0.41856962

tdnn.5.running_var f4 [32]
000000 d4 bc 04 3e a2 e3 bb 3e ae 36 bc 3e ac 10 c5 3e
       0.12962657 0.36697108 0.36760467 0.38489282
000010 96 4f b0 3e d8 58 85 3e 6d d9 d9 3d 3c 8e f8 3d
       0.3443572 0.26044345 0.10637174 0.12136504
000020 6a 42 17 3e d6 d8 84 3e 14 4b 34 3e e2 16 01 3e
       0.14771429 0.25946683 0.17606765 0.12606385
000030 44 12 2d 3e 65 ce c8 3e 5e 31 d4 3d 5a 7d e1 3d
       0.16901499 0.39219967 0.103609785 0.11010237
000040 3e 66 8c 3d 12 f5 1f 3e d4 95 a2 3d d6 4a 9d 3e
       0.06855439 0.1562083 0.07938734 0.30721158
000050 3c a7 a7 3e 48 ec 01 3f de 9d 07 3f 36 a5 01 3f
       0.32744777 0.5075116 0.5297526 0.50642717
000060 fa e7 84 3e ad 29 46 3e 08 99 c1 3e 8c d8 cb 3e
       0.25958234 0.19351836 0.37812066 0.3981365
000070 d0 7d 0e 3e e6 d2 8f 3d 65 17 94 3e 05 b8 bf 3e
       0.13915181 0.070226476 0.289241 0.37445083

tdnn.6.weight f4 [32, 32, 5]
000000 2e 83 0e bd 00 ab 88 bd 30 05 14 3d 3e d7 34 3d
       -0.03479307 -0.06673241 0.03613776 0.044150583
000010 b9 cc 9a 3d c2 21 24 bd 26 d3 ad 3d 4e 5a 5f 3d
       0.07558579 -0.040071256 0.08487539 0.05452948
000020 6c 00 29 3c db 78 28 bd 43 a2 f1 3c 8c bb 38 bd
       0.010315042 -0.04113088 0.029496318 -0.045100734
000030 8c 56 33 bd be 0c 80 3c 34 fd 89 bd 32 54 00 bc
       -0.04378371 0.015631076 -0.06737748 -0.007832574
000040 b0 86 4d bc 91 3f ce 3b b0 c9 6a bb d0 25 dd 3c
       -0.012544319 0.006294199 -0.0035825782 0.02699557
000050 96 9e 36 bd 4e 30 24 3d 78 33 cd bd 42 75 58 3c
       -0.044584833 0.04008513 -0.100195825 0.01321155
000060 58 6c 92 bd 2d 8e a2 3d dc d6 54 3c 19 ab db ba
       -0.07149571 0.07937274 0.01299068 -0.0016759365
000070 b8 85 96 3b c9 ce 56 3c 1c 6a 92 bb 9b c3 34 bd
       0.0045935772 0.013110825 -0.0044682156 -0.044131856
000080 12 fb f3 3c 0c a9 e3 3b 36 2a 90 3b e1 61 e0 bb
       0.029782806 0.006947642 0.004399563 -0.0068476056
000090 10 e4 72 bd 42 b1 ae bc dd 3a 96 3d 26 f9 34 bd
       -0.05929953 -0.021324757 0.07335446 -0.04418292
0000a0 10 41 91 bd fa 88 63 bd 64 b7 8b bd 88 79 3a bd
       -0.07092488 -0.055550553 -0.06822088 -0.045526057
0000b0 7a 75 a7 bc 53 81 47 3b 8a 17 46 3d a6 49 fc 3c
       -0.02044176 0.0030442073 0.048362292 0.030796837
0000c0 08 e0 9d 3c 8a d8 55 3d e2 02 01 3d 78 2c b6 bc
       0.019271865 0.05220846 0.03149689 -0.022238001
0000d0 72 67 36 bd 5d 44 42 bd da da 9c 3b 08 9b 67 bc
       -0.044532247 -0.047428478 0.0047868313 -0.014136083
0000e0 9a 0a 38 bd 9c 49 f4 3c cd bb 14 3d 9a 07 42 3d
       -0.044931985 0.029820256 0.036311913 0.04737053
0000f0 f2 da 80 3d f8 67 6d bd ac 65 11 bd 0b d1 13 bc
       0.062917605 -0.05796048 -0.035497352 -0.009022008
000100 18 4e 09 3d 54 0c 2f 3d 09 e3 da bc ae 58 3b 3d
       0.03352174 0.042736366 -0.026719587 0.04573887
000110 a2 ac 1f bb 86 4f 05 bd c8 e8 21 3d 8c d5 79 3d
       -0.0024364372 -0.032546543 0.039528638 0.06099467
000120 e6 68 4c bd 16 2b e9 3c a5 f2 82 bb be 06 03 bc
       -0.049904726 0.028462928 -0.0039962106 -0.007997213
000130 2e 2b 37 bd e7 2a 1c bd 2a 7e 17 3c dc c5 26 bc
       -0.044718914 -0.038126852 0.009246388 -0.010179009
000140 15 b9 9b bb 5e 2a ed 3c fe 24 f5 bc a0 19 8d 3d
       -0.004752288 0.028950866 -0.029924866 0.06889653
000150 92 22 3c 3d 2f d8 a1 3d 1c e6 9a 3d 69 58 f9 bc
       0.045931406 0.07902562 0.07563421 -0.030437665
000160 14 a5 2d bd 48 7b 08 bd ac fc 24 bc aa 7b 27 bc
       -0.04239376 -0.033320695 -0.010070007 -0.010222355
000170 3c 26 19 bd 96 e8 ac bd 9a 9d 1f bd 64 e0 eb 3a
       -0.03738998 -0.084428 -0.03896866 0.0017995951
000180 bc 09 0e 3d ac 55 2e bc 96 db bf 3c 4c 3c 9e bc
       0.034677252 -0.010640543 0.023420136 -0.019315861
000190 a2 10 6c 3d 1a b7 49 3d ca 7b 64 bd 70 a1 8d 3a
       0.05763305 0.049246885 -0.055782117 0.0010805558
0001a0 54 95 a4 bd dd 66 5d bd 03 ae e8 bb 82 01 22 bd
       -0.080362946 -0.054053176 -0.007100822 -0.03955222
0001b0 b3 73 46 bd 2a de 7e 3d 92 26 cf 3c 91 8f 59 bc
       -0.048450183 0.06222359 0.025286946 -0.013278858
0001c0 96 42 37 bd 6c a3 af bb 20 b2 8b 3d 08 29 e3 bb
       -0.044741236 -0.0053600576 0.06821084 -0.0069323815
0001d0 f2 47 18 3b ba 25 32 3c 18 f5 dd 3c c7 a3 02 3d
       0.0023236242 0.0108732525 0.027094409 0.03189447
0001e0 33 62 0b bd 39 f0 c2 3c 6a 44 69 3c 32 cd e3 3c
       -0.034029197 0.023796188 0.014237503 0.027807806
0001f0 ca e9 7d bd c0 19 93 3d 72 fc 5d 3c 12 cf 10 bc
       -0.061990537 0.07182646 0.013548957 -0.008838432
000200 30 91 f6 3c 02 a4 b7 bc 86 94 87 bd fe 5c 2b bd
       0.030098528 -0.022417072 -0.066201255 -0.04183673
000210 0a d1 b6 bd 56 08 9c 3d d9 f4 02 3d 22 b1 8d 3c
       -0.0892659 0.076187775 0.031971786 0.017296378
000220 bc 9c 63 bd 65 ad 79 bd 7a 79 04 3d c2 3e 96 bd
       -0.055569395 -0.060956378 0.03234241 -0.07336189
000230 5e d4 06 3c c8 ce f7 3c 97 f7 a6 bd 0c d2 6e 3d
       0.008229343 0.030249968 -0.08152693 0.058305785
000240 d7 f4 94 bd 12 77 3b bd 6e 26 cc 3d d6 19 87 3d
       -0.07273262 -0.04576785 0.099682674 0.06596725
000250 d9 9c e5 3c 66 ab 97 3c 39 f5 88 bd 10 19 1e 3a
       0.028028892 0.018514346 -0.066873975 0.0006030956
000260 2b 2f 71 bd da 20 30 3d 8a a6 e4 3c e0 6c 2a 3d
       -0.058882874 0.04300008 0.027911443 0.041607738
000270 de 18 67 3c fe bc 16 3d 8a c5 63 bc 21 2f 6e bd
       0.01410505 0.03680133 -0.013902077 -0.058150414
000280 92 6e 23 bd 76 a0 a5 3b 36 c6 28 bd f2 64 95 3d
       -0.03990037 0.005054529 -0.041204654 0.072946444
000290 b7 94 45 bd e0 e2 44 bd b0 e5 8c 3d a8 bf a7 bd
       -0.04823753 -0.048067927 0.06879747 -0.081908524
0002a0 51 8d 6f bd 6f c3 50 bc ea 4b aa 3c de b3 ba bc
       -0.05848438 -0.0127419075 0.020788152 -0.022790845
0002b0 8c 7d 13 3d 04 c7 7d bd 6e ac f8 3b 80 74 cd bd
       0.036008403 -0.061957374 0.0075889146 -0.10031986
0002c0 20 c6 ce bd cc 02 0c ba f8 df 1c bb 6c 54 89 bd
       -0.10096383 -0.0005340993 -0.0023937207 -0.06705555
0002d0 a0 44 d5 3c 6d 31 34 bc 9c 71 3e 3d 87 83 25 bb
       0.0260337 -0.010998112 0.046495065 -0.0025255398
0002e0 3a 17 73 bc fa 09 91 3c ea 7f 8e bd cd 8f 10 3d
       -0.014837081 0.017704953 -0.069579914 0.03529339
0002f0 40 3b 75 3d 58 6b 71 3d a9 f8 ff bc 9e c6 23 bd
       0.05987096 0.05894026 -0.0312465 -0.039984338
000300 a8 a6 64 bd ca 8b 07 3d cb c8 b8 bc fd 9b a2 bd
       -0.055823 0.033092298 -0.022556683 -0.07939909
000310 24 3f aa bc b0 91 c4 3d 7f 0e 7f 3c 40 bc 93 bd
       -0.02078206 0.095981 0.015567421 -0.0721364
000320 9e 31 2f bc 94 5f 6a bd 5e 62 5e bc d0 28 ef 3b
       -0.010692982 -0.057220057 -0.013573257 0.0072985664
000330 47 7e 4e bd 44 48 82 bd da 9a c1 bc 4c ca 2e 3c
       -0.050413396 -0.0636144 -0.02363341 0.0106683485
000340 82 f6 80 3d d2 62 b2 3b a6 fb c1 bc c0 b9 bc bd
       0.06297018 0.005443909 -0.023679566 -0.092151165
000350 42 7b 34 bd 68 f5 09 bd e8 fa 38 3d 7c 51 54 bd
       -0.04406286 -0.033681303 0.045161158 -0.051835522
000360 de e0 f2 bb 9a 08 33 bd 68 52 38 bd be fd 42 bd
       -0.00741206 -0.043709375 -0.045000464 -0.04760527
000370 52 21 9d bc 58 66 f7 bc 74 b9 af 3d bd 00 86 3d
       -0.019180927 -0.030200168 0.08580294 0.065431096
000380 4c 30 5e 3d 6e c9 07 3d ba fa 03 bb 62 01 58 3d
       0.05424528 0.033151083 -0.0020138458 0.052735694
000390 6c 48 8b bd 46 af 49 bd f3 10 27 bd 10 c6 0e 3d
       -0.06800923 -0.04923942 -0.04078765 0.034856856
0003a0 98 c8 0b 3d c4 30 a4 bd e4 46 0a bd ef 22 be bd
       0.034126848 -0.08017114 -0.033759013 -0.09284007
0003b0 9d 32 78 3c 16 ba 3a bd 8e 46 88 3d 8f 02 16 bc
       0.015148786 -0.04558762 0.06654082 -0.009155883
0003c0 8a 14 25 3d f5 bb ee 3c da 71 2f 3d 60 44 65 3d
       0.04030279 0.02914236 0.042833187 0.05597341
0003d0 fa f5 60 bd 42 79 e6 3b 3a e9 31 bd 4a d4 8a bc
       -0.05492208 0.007033498 -0.043435313 -0.01694693
0003e0 b9 ea 52 3d 54 dd 62 bd 72 5f 76 3d ac fa 8a 3b
       0.05149338 -0.055386856 0.060149617 0.004241308
0003f0 3d 7e 5e bc 7d fe 33 bd 94 e1 82 bd e6 b1 4e 3c
       -0.013579902 -0.04394387 -0.06390682 0.0126156565

tdnn.6.bias f4 [32]
000000 06 3d f1 3c 1a e0 b9 3d 26 fd 33 3d 89 ab 28 bd
       0.029448044 0.09075947 0.043942593 -0.041179214
000010 c4 b6 6f bd 85 7c fe 3c ad 18 c9 bd a6 f0 aa bd
       -0.05852391 0.031065235 -0.0981916 -0.08346681
000020 74 ce 62 3d 17 9d 49 bd 48 8a 05 3d ee 02 37 bd
       0.05537267 -0.04922208 0.03260258 -0.04468053
000030 64 58 85 bd c2 4b 4c 3d a8 84 14 bc 15 c6 3d bd
       -0.06511 0.049876936 -0.009064831 -0.046331484
000040 89 6a f1 3c 88 d2 38 bd 72 a6 49 bd e6 32 8e bd
       0.029469745 -0.045122653 -0.049231 -0.06943302
000050 59 79 d3 bc 90 74 37 bd 9d e8 a4 3d 8c e8 75 bd
       -0.025814699 -0.044788897 0.0805218 -0.060036227
000060 28 0f 97 3c ce c6 9e bc e2 14 aa bb 53 32 80 3d
       0.018439844 -0.019381907 -0.0051904777 0.062595986
000070 2d 47 ab 3c 55 4a 0e 3d c7 2b f9 bc 6a de 7e bd
       0.020907963 0.034738857 -0.030416382 -0.06222383

tdnn.8.running_mean f4 [32]
000000 e8 5f 80 3e 81 2d be 3e aa bf d3 3e ab e9 10 3f
       0.2507317 0.37144092 0.41357166 0.5660655
000010 8e da af 3e b8 ea c5 3e 8e b8 21 3e 90 ff ab 3e
       0.34346431 0.3865564 0.15793058 0.33593416
000020 96 d0 d5 3e fc 11 09 3f 8a b7 0d 3f 4a 86 c9 3e
       0.417607 0.53543067 0.55358183 0.39360267
000030 eb 05 d1 3e 08 2d 06 3f 22 35 0e 3f bd ea 2b 3e
       0.40824828 0.5241246 0.55549824 0.16788764
000040 6c 7c 01 3f 11 64 b0 3e a4 ca f5 3e f4 fe c8 3e
       0.5058048 0.34451345 0.48006165 0.39257014
000050 26 fa f2 3e e0 81 bd 3e ab 8e f6 3e be 7a d4 3e
       0.47456473 0.3701315 0.48155722 0.41499895
000060 d6 49 de 3e ca 91 91 3e 05 84 a6 3e 6f f8 11 3f
       0.43415707 0.2843154 0.32522598 0.57019705
000070 38 34 e3 3e 3e 11 b8 3e 52 84 21 3e 22 fe 3a 3e
       0.44375777 0.35950655 0.15773132 0.18261006

tdnn.8.running_var f4 [32]
000000 a5 33 be 3d 55 8c cc 3d 01 5b 0e 3e ba 92 83 3e
       0.09287194 0.09987704 0.13901903 0.2569788
000010 56 40 cf 3d 32 f2 55 3e 30 36 1a 3d 3c a0 2b 3e
       0.10119693 0.20893171 0.037649333 0.16760343
000020 b8 b1 79 3e 7f 22 cc 3e c8 19 80 3e 93 ac 03 3e
       0.243842 0.39870068 0.2501967 0.128588
000030 99 cb 01 3e fe f0 5e 3e 8b 1b 79 3e f0 a0 2c 3d
       0.12675323 0.21771619 0.24326913 0.04214567
000040 24 03 4e 3e 30 3d c5 3d be 4e 9e 3e 76 a2 06 3e
       0.20118386 0.09630811 0.3091945 0.13147911
000050 b2 68 9b 3e 4a 35 d9 3d e4 ea 9f 3e 11 33 80 3e
       0.30353314 0.10605867 0.31233895 0.2503896
000060 d2 03 8c 3e 06 ee 84 3d 4e 5a 37 3e 62 be ea 3e
       0.27346665 0.06490712 0.17905542 0.45848376
000070 ce 17 80 3e cc dd 3e 3e 5c ff 20 3d 45 10 92 3d
       0.25018162 0.18639296 0.03930603 0.071320094

output_linear.weight f4 [4, 32]
000000 6c 9e ad bd 77 d8 04 3f 1c 44 ca 3e 0b fa 06 3f
       -0.08477482 0.518928 0.39505088 0.52725285
000010 9c a7 0f 3e f6 d5 11 bf a4 11 c7 3d e0 47 e2 be
       0.14028782 -0.56967103 0.097201616 -0.4419546
000020 4a e4 f5 be 66 ff 0b bf 22 02 8a 3e a8 f8 3e 3e
       -0.48025733 -0.5468658 0.26954752 0.18649542
000030 f6 59 26 3f c4 83 91 3e ac 88 03 3f 5f c9 0e 3e
       0.6498102 0.28420842 0.5138042 0.13944004
000040 d5 7c e1 3e de f8 f8 3e a8 39 1e bf f2 38 2e 3e
       0.44040552 0.4862737 -0.61806726 0.1701391
000050 16 bf 01 bf 93 94 16 3f 6e cb 90 be 8c 2c 08 bf
       -0.506822 0.58820456 -0.28280205 -0.53192973
000060 7e 3f 10 bf 36 55 a7 3e 74 d3 20 be 21 1c 06 bf
       -0.5634688 0.32682198 -0.15705663 -0.5238667
000070 e2 9a 07 bf f2 fd d5 be de 43 3f 3e 46 ab 0f bf
       -0.5297071 -0.41795307 0.18678233 -0.5612072
000080 6d 41 cd bd 32 28 95 3d 68 76 42 3e 29 1a 1e 3e
       -0.100222446 0.07283057 0.18990481 0.15439667
000090 d4 96 b6 3d 4f 5c 0f 3e b4 3b b2 3e 96 0b 95 3e
       0.08915487 0.14000057 0.34811175 0.29110402
0000a0 39 ad 9d 3d 3e c7 33 3e 74 70 79 3e 20 b6 66 bd
       0.07699055 0.17556474 0.24359304 -0.05632603
0000b0 60 fe 38 be 06 73 44 3e 9a c1 f9 3d 97 ee 5f be
       -0.18065786 0.19184503 0.1219513 -0.21868359
0000c0 b6 7b ff 3d 12 ca 8c be 86 12 29 bc 8c 7c 0f 3e
       0.12474768 -0.27497917 -0.010319358 0.14012355
0000d0 ae e8 6a 3d b4 73 4a be 18 d9 20 3e b4 28 ee bc
       0.057350807 -0.197707 0.15707815 -0.029072143
0000e0 1a ea b9 3c 1d 9e 43 be cc 15 0c be 00 b4 9f 3d
       0.022694636 -0.19103284 -0.1368019 0.07798004
0000f0 21 f4 8c bd ce a0 16 3e 9c 58 ba be dd ca cd 3e
       -0.068825014 0.1470978 -0.3639573 0.40193835
000100 0c 2c 09 3f d8 d4 06 be 68 e6 f1 be ca 6a 20 bf
       0.53582835 -0.13167131 -0.472461 -0.6266295
000110 ea 67 ee be cc 09 56 3e 8a c0 06 bf b7 81 e3 3e
       -0.46563655 0.20902175 -0.5263754 0.44434902
000120 e8 2e 9e 3e 04 a7 d6 3e 38 1e 22 bf 70 fe c2 be
       0.30895162 0.41924298 -0.6332736 -0.38084745
000130 f4 85 95 be bc e4 ca be cd d7 10 bf 66 1e 0d bd
       -0.2920376 -0.39627635 -0.56579286 -0.03445282
000140 7c ba db be 18 7a 19 be 3e 25 06 3f 8b 92 26 bf
       -0.42915714 -0.14987981 0.5240058 -0.65067357
000150 19 79 1c 3d 64 e5 b3 be 54 61 e1 3e 40 8a c4 3e
       0.038201425 -0.3513595 0.44019568 0.38386726
000160 fc 79 2a 3e 16 9f a3 bd d6 3a d6 3e 04 d4 93 3e
       0.16648096 -0.079893276 0.41841763 0.28872693
000170 20 33 f6 3e 66 b3 97 3e 44 4f 56 be e0 85 43 3e
       0.4808588 0.29629058 -0.20928675 0.19094038
000180 1e 6b 62 be 80 83 60 be 52 7a 1b bc 8e cc 44 be
       -0.22111174 -0.21925163 -0.009489613 -0.19218656
000190 1d e0 34 3e ba 43 3a 3e 08 83 a7 be 84 eb 30 be
       0.17663617 0.18189898 -0.32717156 -0.17277342
0001a0 45 5f 9a 3e d6 65 20 bc 30 b7 bb 3c 8e ea 16 be
       0.3015081 -0.009789905 0.022914499 -0.14737913
0001b0 34 68 cc bd 88 8e b6 3d fa 67 50 3d 1e 94 7a 3e
       -0.09980813 0.089139044 0.05088041 0.24470565
0001c0 87 59 2b 3d 4b 1a 8a be 14 a2 2c 3d 25 85 90 3e
       0.041833427 -0.26973185 0.042146757 0.2822658
0001d0 40 b9 1c 3e 5e f4 ad 3d 6e 43 07 3d d8 7a b8 3e
       0.15305042 0.08493875 0.03302329 0.36031222
0001e0 d0 92 54 3e 9c 9e f6 bc 22 fa 1a be 80 77 79 3e
       0.2075913 -0.030104928 -0.1513448 0.24361992
0001f0 fe c5 b1 bd f4 3a 2f be b4 00 b8 3e 18 de 52 be
       -0.08680342 -0.17112333 0.35938036 -0.20592535

output_linear.bias f4 [4]
000000 2a 81 bb 3e a8 3e 12 bf 96 e9 e0 3e 1f f0 18 bf
       0.36621982 -0.57126856 0.43928212 -0.59741396
